params_repl.npz (npz, 5012 bytes, 1 tensors)

cls f4 [1, 1, 1, 768]
00000000: 08ef debd 1dd9 78ba 75f4 2b3c 9428 9e39
00000010: fd55 acbb 801c 213e 32d4 cd3c 194e b33b
00000020: ef47 cc39 4cc9 abba 028e 063b b3b2 003b
00000030: 8940 c63b 70c1 19b9 4dd2 34ba fae1 bf3a
00000040: f260 23bc 9405 8aba 6348 fa3b d916 49bb
00000050: 363c 813b de6a 41be 430b 88bb f1c7 503b
00000060: f6e8 303c 9a88 cebc c313 6d3c 6430 f73b
00000070: 750b 5d3d 91d7 42bb e37a d13b c82f 463b
00000080: 9792 403b d8b1 013b 2017 cc3b 2f8c 853c
00000090: b3a5 c43b 8e11 633b 36e2 21bb a212 d83c
000000a0: cf4e acba 58a0 a63a 72d3 b13c 3292 213c
000000b0: f2f1 6bbb 8655 81bd ee7d 3a3b 1405 98bd
000000c0: 7e83 4fbb 786b 0db8 8794 853b 9f0c e53a
000000d0: b3f3 493b f16f 0bbd 1f4a 00bd 588a 1b3b
000000e0: 4264 53ba d385 ef3c c685 db3a 75f1 02bb
000000f0: e1b6 683a 2863 c6bc a017 71bb 8462 8ebb
00000100: 1f54 da3b a666 0cba b6e1 88ba 5786 df3a
00000110: 671e 033d 8d40 823d 52cc bcbc 78b1 ae3b
00000120: f1d0 e63a e433 853e 48f1 7b3b d3ad eabe
00000130: 58a2 84bb bb2d 9dbb c9ea e83c fe8e a43a
00000140: c97f 763a 9c05 cf3b 9c08 0b3e d273 17bf
00000150: f911 1fbd 7f0c 2fbc 9457 d0b9 c55e 31ba
00000160: 4ab2 e03b 1ef2 c6bb 373c c0ba 458c cf3b
00000170: 715c 39ba ab3b a9ba cba9 be3b e021 033a
00000180: 96ec 0a3d 5805 27bb 395a 50bb 1925 6f3b
00000190: 812b 95bd 2271 db3a dc7b 92bb 76e5 0ebd
000001a0: 910f ceba 7a65 32bb 6da8 9dbc 60a5 d0bb
000001b0: dbeb bc3c 99df 3d3c 5a3d d8bb bb05 d33b
000001c0: 0ee5 8b3b 8963 aa3a d1e4 97bd b676 a2ba
000001d0: 0d4e 9eba f5ae 78bb bd7c e83c 2b7e 1fbb
000001e0: 32ca 68bd a4de 93bb 3e72 143c acf8 97b9
000001f0: 588e d7bd 3aea 87ba 649b f6b9 c26e a4bb
00000200: 195e c2bb 466d 48bb 55f3 933b 62bb 03bb
00000210: 4978 163c a31c 42bb 893a 3fbb 0452 393c
00000220: 75f6 e93c aa29 d0ba 215d 7a3b 58db faba
00000230: 91b2 50bd a3ec 8e3b e9f6 b53c f9c4 aabb
00000240: d736 d93d a6a6 a43d ce51 e739 9580 0e3c
00000250: f8cf 233c 365e bb3e fd8f 8f3b 7ba7 02b9
00000260: 9686 96be 044c 643c f0f1 e6b9 94ff abb9
00000270: c2cf 75bb 2520 0a39 4212 f7ba 4ba8 a0ba
00000280: f791 423b 6c9c 1db9 f6d3 c73b 904b 0c3a
00000290: 95f4 32bd 21f7 63bc c1d4 263a e8c1 e4bb
000002a0: 0228 ddbd 1a01 27be 71d6 5a3c a52e c83b
000002b0: 0d95 b9bb 266f 483b da83 9e3b 3a56 6e3d
000002c0: e362 da3e 8066 1f3b 1e64 583a 11ae f0bb
000002d0: 45cf 37bd 3e35 dcbb 8e16 3ebb b859 a23c
000002e0: 78de 8eb8 876c 113b a2fe a9bb 0013 37bf
000002f0: f970 74bd fd59 003f 80eb 8a3c 79fb 7cbb
00000300: 9739 1ebb 3843 06be e309 1d3c dab2 603c
00000310: fa34 1fbc 1a57 0cbd cece d13c a5d0 dabb
00000320: dac2 bcbd 72bc 403b 8f9c ccba 54ee 54ba
00000330: 1da1 16bc 3288 85bb 5cd9 bd3b c2e6 1abb
00000340: df0a b7bb 96e0 b03a bda0 3a3b 7b2e 553c
00000350: 9946 a93d b277 46bb 0130 cc3a 806e af3a
00000360: a21d 3abc fa86 be3b 0769 4b3a 25b5 c8bb
00000370: 5177 fabb 65b8 a9ba eea0 e83b 6ebc b93b
00000380: 4c19 833c da85 833c 9bbf e53b b8cd c8bc
00000390: 7a3a a1bc edfb 4dbb ed63 d63b 0e8e 103d
000003a0: be0f 3dbd 034c 96bb 14e8 59bb 6f58 9c3b
000003b0: 1e3d 9c3b f26a 07bf acb2 8a3b 6856 86bb
000003c0: b9dc 7bbb 0b8d aebb 1108 be3e ee9d 6d3b
000003d0: 229e 823b c57b 083b a28e 073a 8597 fc3e
000003e0: 7525 cf3d 5445 8cba 8b9f 9b3b 9e0b d33b
000003f0: 1039 5e3b 9a5d 943b ef98 e7bb 89ee c7bd
-0.10885435 -0.00094928016 0.010495295 0.00030166341 -0.005259274 0.15733528 0.025125597 0.0054719565
0.00038963507 -0.0013106256 0.002053142 0.0019637763 0.0060501737 -0.00014663278 -0.00068977923 0.001463949
-0.009971844 -0.0010530227 0.0076380237 -0.0030683784 0.0039439453 -0.18888423 -0.004151733 0.0031857456
0.01079773 -0.025211621 0.014470044 0.0075436104 0.053966004 -0.0029730538 0.006392823 0.0030240882
0.002938425 0.001978984 0.0062283427 0.016302196 0.006001198 0.0034647915 -0.0024701483 0.026376072
-0.0013146045 0.0012712581 0.02170727 0.009861516 -0.0036002365 -0.063151404 0.0028456408 -0.074228436
-0.0031664069 -3.3717108e-05 0.0040765437 0.0017475075 0.0030815422 -0.034042303 -0.031320687 0.0023733582
-0.0008063951 0.029238617 0.0016748242 -0.0019980345 0.0008877349 -0.024217203 -0.0036787763 -0.00434524
0.00666286 -0.0005355872 -0.0010443244 0.0017053586 0.032011416 0.06359968 -0.023046646 0.0053312145
0.0017609877 0.26016152 0.0038443375 -0.45835742 -0.004047673 -0.0047967113 0.028432267 0.0012554822
0.0009403197 0.0063178074 0.13577503 -0.591611 -0.0388355 -0.010684132 -0.00039738102 -0.0006766136
0.006857191 -0.006071343 -0.0014666383 0.00633386 -0.0007070965 -0.0012911459 0.0058185807 0.0005002301
0.033917032 -0.0025485363 -0.0031792058 0.0036490618 -0.07283688 0.001674209 -0.0044703316 -0.0348868
-0.0015721192 -0.002722113 -0.01924535 -0.0063673705 0.023061683 0.011588954 -0.0065991106 0.006439892
0.004269249 0.0012999634 -0.0741669 -0.0012394998 -0.0012077704 -0.003794608 0.028379792 -0.0024336677
-0.056833453 -0.004512625 0.009060441 -0.0002898624 -0.10525197 -0.0010369488 -0.0004703655 -0.005018086
-0.0059316275 -0.003058271 0.0045150914 -0.0020100703 0.009183952 -0.002961912 -0.0029179177 0.011311058
0.028559903 -0.0015881557 0.0038202482 -0.0019138856 -0.050951544 0.0043617054 0.022212462 -0.0052114693
0.10606163 0.08039598 0.00044120703 0.0086976485 0.009998314 0.36595315 0.0043811784 -0.00012460157
-0.29399556 0.013934139 -0.00044049276 -0.00032806082 -0.0037507867 0.0001317268 -0.0018850046 -0.0012257186
0.0029689053 -0.00015030958 0.0060982658 0.0005351836 -0.043690283 -0.013913901 0.00063641 -0.0069811232
-0.107986465 -0.16309014 0.013356791 0.006109076 -0.00566352 0.0030583828 0.0048374953 0.0581877
0.4265357 0.002432257 0.0008254665 -0.007344969 -0.044875402 -0.006720214 -0.0029005143 0.019818172
-6.812526e-05 0.0022189931 -0.0051878253 -0.71513367 -0.05967805 0.5013731 0.016957998 -0.0038602038
-0.0024143213 -0.1311158 0.009584877 0.013714517 -0.00971722 -0.034262754 0.025611307 -0.0066777044
-0.092168525 0.0029409197 -0.0015610623 -0.0008122672 -0.009193686 -0.0040750736 0.0057937335 -0.0023636078
-0.0055860127 0.0013494666 0.0028477155 0.01301157 0.082654186 -0.0030283746 0.0015578271 0.0013384372
-0.011359604 0.0058144303 0.0007759486 -0.0061251097 -0.007643618 -0.0012948631 0.0070992624 0.0056682145
0.016003273 0.016055036 0.0070113665 -0.024512157 -0.019681204 -0.0031430677 0.006542674 0.035291724
-0.04615759 -0.004586698 -0.0033249902 0.0047712843 0.004768028 -0.5289756 0.004232725 -0.004099656
-0.0038431122 -0.005326872 0.3711553 0.0036257464 0.003986136 0.0020825726 0.0005171095 0.4933435
0.10114566 -0.0010701814 0.0047492436 0.006440594 0.0033908524 0.0045277597 -0.0070677917 -0.09762294
